model1.pth (torch, 23263 bytes, 6 tensors)

weight f4 [64, 9]
0	0x3e1ea45a	0.15492383
1	0x3e6d4af2	0.2317312
2	0xbe7696c8	-0.24080956
3	0x3da08abc	0.078389615
4	0xbe371806	-0.17880258
5	0xbe16e596	-0.14736018
6	0x3cea0f00	0.028571606
7	0x3e59285a	0.21206799
8	0x3e8310fb	0.25598893
9	0xbde3c2c0	-0.1112113
10	0x3e997ce7	0.29978105
11	0x3e79f8a2	0.24411252
12	0xbe2d3a8b	-0.16916864
13	0x3de68b8c	0.11257085
14	0x3e893d0f	0.26804397
15	0x3e72f9ca	0.237281
16	0x3ea86b4b	0.32894358
17	0xbce7b180	-0.02828288
18	0x3ea51115	0.32239595
19	0x3de4ceb0	0.11172235
20	0x3e15607a	0.14587584
21	0x3cef66d0	0.02922383
22	0x3ea8c95f	0.32966134
23	0xbe81e634	-0.25370944
24	0x3e485f7e	0.19567677
25	0x3e238782	0.15969661
26	0xbe85cf8c	-0.26134908
27	0xbe9b712a	-0.30359775
28	0x3e8d471d	0.27593318
29	0x3e316542	0.17323783
30	0x3e5b7852	0.21432617
31	0x3dd46f0c	0.10372743
32	0x3ea89a69	0.32930306
33	0xbea96e68	-0.33092046
34	0x3e997429	0.29971436
35	0xbab0bf00	-0.0013484657
36	0xbe58daeb	-0.2117726
37	0xbdf0a766	-0.11750679
38	0x3e9ce2c7	0.30641767
39	0xbe0bc2a0	-0.13648462
40	0xbe0566f8	-0.1302756
41	0xbe511eb8	-0.20421875
42	0xbd0a55e0	-0.033773303
43	0xbd68ac40	-0.056804895
44	0x3e0204a8	0.12697089
45	0xbe91b334	-0.28457034
46	0x3e94d735	0.2907044
47	0x3e4c7a12	0.19968441
48	0xbe5bf4a0	-0.21480036
49	0x3e584e0a	0.2112352
50	0x3de10a40	0.10988283
51	0x3e86efd9	0.26354864
52	0x3d415c88	0.047207385
53	0x3e174bba	0.14774981
54	0x3eaa0941	0.33210185
55	0xbe91d9d6	-0.28486508
56	0x3e9f17ff	0.31072995
57	0x3e9d28bd	0.30695143
58	0xbe6726ce	-0.22573397
59	0x3ea8583f	0.32879826
60	0xbd27ec80	-0.04099703
61	0xbe2fa16e	-0.17151424
62	0xbd45e298	-0.0483118
63	0x3dc37730	0.095442176
64	0x3ea70a01	0.3262482
65	0x3d7b46d8	0.06134686
66	0x3e24b4b2	0.16084555
67	0x3e2cf772	0.16891268
68	0x3e045af8	0.12925327
69	0xbe37e406	-0.17958078
70	0xbe860643	-0.26176652
71	0xbaec9800	-0.0018050671
72	0x3e373c6e	0.17894146
73	0x3e671842	0.22567847
74	0x3e901c19	0.28146437
75	0x3d113238	0.035448283
76	0xbe3ad7a0	-0.18246317
77	0x3e87b5b1	0.26505807
78	0x3e90ba05	0.28266922
79	0xbccf4fd0	-0.025306612
80	0x3e1e986e	0.15487835
81	0x3e2ed9ee	0.17075321
82	0x3e8fd4c9	0.2809203
83	0x3e584796	0.21121058
84	0x3e3e92f2	0.18610743
85	0xbe7cf3c0	-0.24702358
86	0xbe67c826	-0.22634944
87	0xbe81ab8a	-0.25326186
88	0xbd5ec988	-0.054391414
89	0xbe4ea5fe	-0.20180508
90	0x3e8ba961	0.27277663
91	0xbe55e8de	-0.20889613
92	0x3d5fd760	0.054648757
93	0xbe7be103	-0.24597554
94	0xbd5a62f8	-0.05331704
95	0x3e1ca320	0.15296602
96	0x3e618fa2	0.22027448
97	0xbe52912b	-0.2056319
98	0x3ea1023f	0.31447026
99	0x3e0ef94e	0.1396229
100	0xbdd9a8f0	-0.106279254
101	0x3e11b396	0.14228663
102	0x3ea5f02d	0.32409802
103	0xbe96fe4e	-0.29490894
104	0x3d8b2250	0.06793654
105	0x3c567b20	0.013090879
106	0xbc53f8a0	-0.012937695
107	0xbe285376	-0.16438088
108	0x3c7f6020	0.015586883
109	0x3cda2430	0.026628584
110	0x3d4abc58	0.049496025
111	0x3d3fdf80	0.046844006
112	0x3e76ed26	0.24113902
113	0x3e950ad3	0.2910982
114	0xbea931e4	-0.33045876
115	0xbe89f0e7	-0.26941606
116	0xbdb4adc6	-0.08822207
117	0xbe90cd6a	-0.28281718
118	0xbe599046	-0.21246442
119	0x3e74d93e	0.23910996
120	0xbca7b6f0	-0.020472974
121	0xbdf4c34c	-0.119513124
122	0x3dc25f5c	0.094908446
123	0xbe0b057e	-0.13576314
124	0x3e9a3891	0.30121282
125	0xbd386140	-0.04501462
126	0x3de9ba40	0.114124775
127	0xbde0bba6	-0.10973291
128	0xbdc25b50	-0.09490073
129	0xbe8c5550	-0.27408838
130	0x3d290108	0.04126075
131	0xbe052233	-0.13001327
132	0xbdab9d26	-0.08379583
133	0xbe19d46b	-0.15022437
134	0x3e0066e6	0.12539253
135	0xbdec8120	-0.11548066
136	0xbe3261de	-0.17420146
137	0x3d053660	0.03252256
138	0x3da7152c	0.08158335
139	0x3e2f93da	0.17146245
140	0x3ddf4c54	0.1090323
141	0xbde54eb6	-0.111966535
142	0xbe9a9dc8	-0.30198503
143	0x3e27b458	0.1637739
144	0x3e099686	0.13436326
145	0xbe98ed54	-0.29868567
146	0xbe301183	-0.1719418
147	0xbdd3cd96	-0.10341947
148	0xbe971afb	-0.29512772
149	0x3de95704	0.1139355
150	0xbe05c68e	-0.13064024
151	0xbe236928	-0.15958083
152	0x3e931289	0.2872508
153	0x3e0fb268	0.140329
154	0x3e09a872	0.13443163
155	0x3e8d69db	0.27619824
156	0x3e89c183	0.2690545
157	0xbcc9e840	-0.024646878
158	0x3e89021d	0.26759425
159	0xbe34535e	-0.17609927
160	0xbd959c54	-0.07305208
161	0x3e79e3ee	0.24403355
162	0xbc97a6b0	-0.0185121
163	0xbc9df9c0	-0.01928413
164	0xbc2e15a0	-0.010625273
165	0xbe869f5a	-0.2629345
166	0x3d6f7060	0.05845678
167	0xbea3b0f7	-0.3197095
168	0xbea435bb	-0.32072243
169	0xbe6a15c3	-0.22859864
170	0x3e189906	0.14902124
171	0x3ca3db80	0.020002127
172	0x3e316672	0.17324236
173	0x3cf1c400	0.029512405
174	0x3e534d92	0.2063506
175	0xbd715028	-0.058914334
176	0xbd1d6658	-0.03842768
177	0xbe393c03	-0.18089299
178	0x3e95d131	0.29261163
179	0xbdd7502c	-0.105133384
180	0xbe305bbe	-0.17222497
181	0x3e942e7b	0.28941712
182	0xbd9aaf8c	-0.07553014
183	0x3d89d414	0.06729904
184	0x3df5419c	0.119754046
185	0xbe6c51c3	-0.23078065
186	0xbe73d68b	-0.2381231
187	0xbe6a4700	-0.22878647
188	0xbbadcd00	-0.005303979
189	0x3e2f3ce6	0.17113075
190	0x3e7e460e	0.24831411
191	0x3e24f56a	0.16109243
192	0x3dc2b23c	0.09506652
193	0xbdd09700	-0.10185051
194	0x3e164ad6	0.14676985
195	0x3e434226	0.19068202
196	0x3e3189d6	0.17337736
197	0xbe7279a3	-0.23679213
198	0xbe0980fe	-0.13428113
199	0xbe9f0022	-0.3105479
200	0xbea17500	-0.31534576
201	0x3da52210	0.080631375
202	0xbe649feb	-0.22326629
203	0x3d299440	0.041401148
204	0xbd367458	-0.044544548
205	0xbe855fa4	-0.2604953
206	0xbd3be860	-0.045875907
207	0x3e29c946	0.16580686
208	0x3e72cc8a	0.23710838
209	0x3e56c2da	0.20972767
210	0x3e4c6e7a	0.19964018
211	0xbe0d1416	-0.13777193
212	0xbd3e2e38	-0.046430796
213	0x3e0c105a	0.13678113
214	0x3e07dc98	0.13267744
215	0x3e80b19d	0.25135508
216	0x3e9d55a5	0.30729404
217	0x3e1b4978	0.15164745
218	0x3e11760e	0.1420519
219	0x3e98537d	0.29751197
220	0xbda20eec	-0.07913002
221	0x3e14528e	0.14484617
222	0xbe298008	-0.16552746
223	0xbd040940	-0.032235384
224	0x3e0e503a	0.13897792
225	0x3df6a524	0.12043217
226	0x3e456b32	0.19279173
227	0xbea29282	-0.31752402
228	0xbe88591f	-0.26630494
229	0x3e3e2dce	0.1857216
230	0xbe19bbf3	-0.15013103
231	0x3d809060	0.06277537
232	0x3e22ce1a	0.15898934
233	0xbe336cbe	-0.1752195
234	0x3e3ccdc2	0.18437865
235	0xbe5f005e	-0.21777484
236	0x3c340b00	0.010988951
237	0x3e025d9e	0.12731025
238	0xbdb95e26	-0.090511605
239	0x3d60f988	0.05492547
240	0x3cf90300	0.030396938
241	0xbe9009fc	-0.28132617
242	0xbd243108	-0.040085822
243	0xbcbc4f00	-0.022986889
244	0x3cc0b690	0.023524553
245	0xbd5e8020	-0.05432141
246	0xbe22e07b	-0.15905945
247	0xbb59ea00	-0.0033251047
248	0xbe75b390	-0.23994279
249	0xbdc49060	-0.0959785
250	0xbe8b74c8	-0.27237535
251	0xbe1ad828	-0.1512152
252	0x3e24dc82	0.16099742
253	0xbddc40e6	-0.10754566
254	0x3dd8ebec	0.105918735
255	0x3e3b6b22	0.18302587

bias f4 [64]
0	0x3d9a15e0	0.075237036
1	0x3dc72f14	0.09725776
2	0x3e7b28ca	0.24527279
3	0x3e077f30	0.13232112
4	0x3c438180	0.011932731
5	0xbdacb760	-0.084334135
6	0x3ea03601	0.31291202
7	0x3d6c0fc0	0.057632208
8	0xbd99a3a4	-0.07501915
9	0xbe0ebfe0	-0.13940382
10	0xbdd405b0	-0.10352647
11	0x3e928c89	0.28622845
12	0x3db9f000	0.090789795
13	0x3d64eda8	0.05589071
14	0x3e9fc417	0.31204292
15	0x3db8feac	0.0903295
16	0x3e178d96	0.14800104
17	0x3e4e0156	0.20117697
18	0xbe651b50	-0.223737
19	0x3d636c68	0.055523306
20	0xbea2548c	-0.3170513
21	0xbdb82ba0	-0.08992696
22	0x3e80a669	0.2512696
23	0x3d4ed058	0.05049166
24	0xbe2312e3	-0.15925173
25	0xbe615a7b	-0.22007172
26	0xbe579783	-0.21053891
27	0xbda8e1fc	-0.08246228
28	0x3da1ac5c	0.07894203
29	0xbd9ed414	-0.077552944
30	0xbe8d066c	-0.27543962
31	0xbe6698fb	-0.22519295
32	0xbe550926	-0.20804271
33	0x3d2146c8	0.039374143
34	0xbe258398	-0.1616348
35	0xbdd9523c	-0.10611388
36	0x3e3ac40a	0.18238845
37	0x3e8a53b1	0.27016976
38	0x3e89fe7b	0.26951966
39	0xbe6f5f6e	-0.23376247
40	0x3e15c750	0.14626813
41	0x3e707cb6	0.23485073
42	0x3e9e5edd	0.3093175
43	0xbd2efcf8	-0.04272172
44	0x3ddfb790	0.10923684
45	0x3e6e9e02	0.23302463
46	0xbc98de50	-0.018660694
47	0xbde4c31c	-0.11170027
48	0xbe7dda4b	-0.24790303
49	0x3e0e3878	0.13888729
50	0xbda754c4	-0.08170465
51	0x3d4729d8	0.04862389
52	0x3d29c518	0.04144773
53	0xbd276668	-0.040869147
54	0xbe3930f8	-0.18085086
55	0xbe84c536	-0.2593171
56	0x3df30064	0.11865309
57	0x3e4056da	0.18783131
58	0xbe932893	-0.28741893
59	0x3e0210fe	0.12701795
60	0x3e447c0a	0.19187942
61	0xbe821713	-0.2540823
62	0x3e32d816	0.17465243
63	0xbe70b02b	-0.23504703

weight f4 [64, 64]
0	0x3d9fe638	0.078075826
1	0x3b910040	0.0044250786
2	0x3cc49268	0.023995593
3	0x3dcda46c	0.100411266
4	0x3ae39600	0.0017363429
5	0xbddecade	-0.108785376
6	0xbd2b938c	-0.04188876
7	0xbd8ead44	-0.069666415
8	0x3d189a18	0.03725633
9	0x3d44736c	0.047961637
10	0x3df55f6c	0.11981091
11	0x3dcc44ca	0.09974058
12	0xbd3841f0	-0.044984758
13	0xbd1b1a9c	-0.037867174
14	0xbcf8f8d8	-0.030392095
15	0xbdfaf5b8	-0.122538984
16	0xbd640f3c	-0.05567859
17	0x3d5568e8	0.052102
18	0xbdf6e91a	-0.12056179
19	0x3ada6180	0.0016661137
20	0xbddf1754	-0.10893121
21	0x3d835ad6	0.0641381
22	0x3daa5b3a	0.08318181
23	0xbde6f248	-0.1127668
24	0xbcebb258	-0.028771564
25	0xbd0bac40	-0.034099817
26	0x3df2a230	0.11847341
27	0x3adc6c00	0.0016816854
28	0x3da92790	0.08259499
29	0xbdec4908	-0.11537367
30	0xbd3c5474	-0.04597898
31	0x3c212fe0	0.009838074
32	0xbd2b0fa8	-0.041762978
33	0xbdbace2c	-0.091213554
34	0xbd1557ac	-0.036460564
35	0xbda88da2	-0.08230139
36	0xbdaa9468	-0.083290875
37	0x3d555fc0	0.052093267
38	0xbd6dc038	-0.058044642
39	0x3d49a050	0.04922515
40	0x3cf0f328	0.029412821
41	0xbdd256a0	-0.10270429
42	0xbdf2d1b8	-0.11856407
43	0xbdc917f4	-0.09819022
44	0xbd9bda2a	-0.07609971
45	0xbdc5830c	-0.09644136
46	0x3de73958	0.11290234
47	0x3d908632	0.07056846
48	0xbde23946	-0.1104608
49	0x3d354d68	0.044263273
50	0x3b916160	0.004436657
51	0x3d06c264	0.03290023
52	0xbd7e2274	-0.062044576
53	0xbc1ebc90	-0.0096885115
54	0xbc959298	-0.018258378
55	0xbcb93e50	-0.02261272
56	0x3dbafd72	0.09130372
57	0x3d9987cc	0.07496604
58	0x3de46cee	0.11153589
59	0x3db67898	0.0890972
60	0xbdb19426	-0.08670835
61	0xbd882688	-0.06647974
62	0x3dea51a0	0.1144135
63	0xbdf9333a	-0.12167974
64	0xbde2d724	-0.11076191
65	0x3dc03572	0.09385194
66	0x3c3f8210	0.011688724
67	0x3c532340	0.012886822
68	0xbd7d3998	-0.061822504
69	0x3c1c8050	0.009552076
70	0xbd6b6424	-0.05746855
71	0xbd464bf4	-0.04841228
72	0x39834a00	0.000250414
73	0x3de034a4	0.109475404
74	0xbcf743b0	-0.030183643
75	0xbd831f94	-0.064025074
76	0x3cbee920	0.023304522
77	0xbd95a94e	-0.07307683
78	0xbd22c6dc	-0.03974043
79	0xbdc57db8	-0.096431196
80	0x3db3eb8a	0.0878516
81	0xbd11fea4	-0.035643235
82	0x3dc850ec	0.097810596
83	0x3c14a3e0	0.009072274
84	0x3dc618c6	0.09672694
85	0xbdf69ff4	-0.120422274
86	0x3d8a1e5a	0.0674407
87	0x3d83e10a	0.06439407
88	0x3c644290	0.013931885
89	0xbdcf137a	-0.10111137
90	0x3db61484	0.08890632
91	0xbd969d92	-0.07354273
92	0x3d575dcc	0.052579686
93	0xbc9ef438	-0.019403562
94	0xbde7330e	-0.11289035
95	0xbd70df7c	-0.05880688
96	0x3d90551e	0.07047485
97	0xbd9b3ede	-0.0758035
98	0xbdceff3a	-0.10107274
99	0xbd4a15c8	-0.04933718
100	0xbab17880	-0.001353994
101	0x3cc86d20	0.024466097
102	0xbd9322e4	-0.07184389
103	0xbd9c9ee8	-0.076474965
104	0xbde2a146	-0.11065917
105	0xbd687f00	-0.05676174
106	0x3db1c5cc	0.08680305
107	0xbd75cea4	-0.06001152
108	0xbc2a8f00	-0.01041007
109	0x3d6437e0	0.05571735
110	0x3db7de5e	0.0897796
111	0xbdf6856a	-0.120371655
112	0xbda50a9e	-0.08058666
113	0x3d548b94	0.051890925
114	0xbb9dec80	-0.0048194528
115	0xbdc9b860	-0.0984962
116	0xbd25cc88	-0.04047826
117	0x3dc589d8	0.09645432
118	0xbd3da1c8	-0.046296865
119	0xbd7ebb68	-0.062190443
120	0xbd9a8a4e	-0.07545911
121	0x3ce0b0a8	0.027427986
122	0xbdb68a08	-0.08913046
123	0x3d6f3abc	0.058405623
124	0x3dcf3db6	0.10119192
125	0xbc347bd0	-0.011015847
126	0x3dba41ba	0.090945676
127	0xbddf2e72	-0.108975306
128	0xbdb26a94	-0.087117344
129	0x3c025740	0.007955372
130	0x3db0e8d4	0.086381584
131	0x3d86bff8	0.06579584
132	0xbddddd46	-0.1083322
133	0xbca32098	-0.019913003
134	0xbdd3d9f6	-0.10344307
135	0x3d89e912	0.06733908
136	0xbd4ea30c	-0.050448462
137	0x3dcd74e8	0.10032064
138	0xbd6f6ad4	-0.05845149
139	0x3dcfb5ac	0.10142073
140	0xbd72a370	-0.059237897
141	0xbd906d80	-0.070521355
142	0x3d60328c	0.054735705
143	0x3df4c484	0.11951545
144	0x3c5ee3c0	0.0136041045
145	0x3ce96940	0.02849257
146	0x3ddaa984	0.10676864
147	0x3c002500	0.0078213215
148	0xbd942fd0	-0.07235682
149	0xbc502790	-0.012704745
150	0x3dfb8d9e	0.12282871
151	0x3d2604d0	0.040531933
152	0x3dc066da	0.093946174
153	0x3d43b9d0	0.047784626
154	0x3daa64d0	0.0832001
155	0xbda6aecc	-0.081388086
156	0x3c55aeb0	0.013042137
157	0xbd4396bc	-0.047751173
158	0x3bfbb1e0	0.0076811165
159	0x3de648ba	0.1124434
160	0x3c7600d0	0.015014842
161	0xbdac5a6c	-0.08415684
162	0x3c4624f0	0.0120937675
163	0xbca87ad8	-0.020566389
164	0xbdd3c0bc	-0.103394955
165	0x3d3872c0	0.04503131
166	0xbdc8ac40	-0.09798479
167	0xbd92c142	-0.07165767
168	0x3d0d8338	0.034548968
169	0xbce5a9d8	-0.02803509
170	0x3df05da8	0.117366135
171	0x3d6c84b4	0.057743743
172	0x3da81a22	0.082081094
173	0x3db7c56c	0.08973202
174	0x3db03572	0.08603944
175	0x3d0aee84	0.033918872
176	0x3de0e204	0.10980609
177	0xbc11a320	-0.00888899
178	0x3de6ebd4	0.112754494
179	0xbc8d7fe0	-0.01727289
180	0x3cbe9d18	0.023268268
181	0xbd37cbec	-0.04487221
182	0xbdabf152	-0.083956376
183	0xbdd526da	-0.10407801
184	0xbd82efbe	-0.063933834
185	0xbdc160a0	-0.09442258
186	0xbd48d08c	-0.04902701
187	0x3d3ebe44	0.04656817
188	0xbce7f0c0	-0.02831304
189	0xbdc25608	-0.094890654
190	0xbd9ab882	-0.07554723
191	0xbca96890	-0.020679742
192	0x3ce72cc0	0.02821958
193	0x3da14bf2	0.078758135
194	0x3da7df00	0.08196831
195	0xbd99d5ac	-0.07511458
196	0xbd88d800	-0.06681824
197	0xbdf4bdc8	-0.119502604
198	0x3d464b8c	0.04841189
199	0x3d639248	0.055559427
200	0x3dfae034	0.122497946
201	0xbdc7f854	-0.09764162
202	0x3cab2050	0.020889431
203	0xbdcc2240	-0.0996747
204	0xbdd0e94a	-0.10200746
205	0xbbfb38e0	-0.007666692
206	0xbdc2befa	-0.09509082
207	0xbd95851e	-0.07300781
208	0x3cf44db0	0.0298222
209	0xbdfb537a	-0.12271781
210	0x3d252a6c	0.04032366
211	0x3ddaaa40	0.10677004
212	0xbd79f088	-0.061020404
213	0xbc8a0a70	-0.01685068
214	0xbd66b8d8	-0.056328624
215	0xbd202324	-0.039096013
216	0xbd9d3126	-0.0767539
217	0xbd09b7a8	-0.033622414
218	0xbc772bf0	-0.015086159
219	0xbdcb0df4	-0.09914771
220	0xbc0cffb0	-0.0086058825
221	0x3dc31580	0.09525585
222	0x3de44b5e	0.11147188
223	0xbd74c0d0	-0.059754193
224	0x3df94d92	0.121729985
225	0xbd958e30	-0.07302511
226	0x3d37564c	0.044760033
227	0x3d7faffc	0.06242369
228	0xbb0c7680	-0.0021432936
229	0xbd06aa30	-0.032877147
230	0x3b964220	0.0045855194
231	0xbd373fdc	-0.044738635
232	0x3d6ded1c	0.058087453
233	0xbd8b6610	-0.06806576
234	0x3d56b410	0.052417815
235	0x3d7fe43c	0.06247352
236	0xbdc0c00e	-0.094116315
237	0x3dc8d4a6	0.098061845
238	0x3d3f33c0	0.046680212
239	0x3cd6a560	0.026201904
240	0x3d956488	0.072945654
241	0xbde3a332	-0.111151114
242	0xbde242ba	-0.11047883
243	0xbcb3b250	-0.021935612
244	0x3cc1baa8	0.023648575
245	0xbde40192	-0.11133112
246	0xbdbdcc66	-0.092675015
247	0x3d7c7ca8	0.06164232
248	0xbcaf3f80	-0.021392584
249	0x3dac1ab0	0.08403528
250	0x3d043ad0	0.03228265
251	0x3de32698	0.110913455
252	0x3c667770	0.014066562
253	0xbd825ab8	-0.063649595
254	0xbc7dcad0	-0.015490249
255	0xbdde4d26	-0.10854559

bias f4 [64]
0	0x3bc66160	0.0060540885
1	0x3d6d72d8	0.05797085
2	0xbde93222	-0.11386515
3	0x3c581ce0	0.013190478
4	0xbd7a5dfc	-0.061124787
5	0xbd945e7e	-0.072445855
6	0x3de28dd2	0.11062206
7	0xbc45dbe0	-0.012076348
8	0xbcfa1098	-0.03052549
9	0xbdc3069e	-0.095227465
10	0x3d526e94	0.051374987
11	0x3d1811a8	0.037126213
12	0xbded1eee	-0.11578165
13	0xbbf40100	-0.0074464083
14	0xbd38b818	-0.04509744
15	0xbc2193d0	-0.009861901
16	0x3c3598b0	0.011083767
17	0x3d0c44f0	0.03424543
18	0xbd842250	-0.06451857
19	0x3d363e88	0.04449323
20	0xbdcf451a	-0.10120602
21	0x3cd4e000	0.025985718
22	0xbd46bb6c	-0.048518583
23	0x3cd1c3e8	0.02560611
24	0x3d88e2c8	0.0668388
25	0xbd83375e	-0.06407045
26	0x3def3400	0.1167984
27	0xbd84f4a4	-0.06491974
28	0xbdd9e622	-0.106395975
29	0x3dcbf1f6	0.0995826
30	0x3d7e733c	0.062121615
31	0xbcd62650	-0.026141316
32	0x3d33aea0	0.043867707
33	0xbd0e8e78	-0.034803838
34	0x3d81cfe0	0.06338477
35	0xbd4120f8	-0.047150582
36	0xbd8df81e	-0.0693209
37	0x3d897434	0.06711617
38	0xbd66c01c	-0.056335554
39	0xbca32988	-0.019917265
40	0xbd6565ac	-0.056005165
41	0xbce47d00	-0.027891636
42	0xbc6dfc10	-0.014525428
43	0x3b5ca900	0.0033670068
44	0xbdfcd772	-0.123457804
45	0xbd3a6264	-0.04550399
46	0xbd1d12f8	-0.038348168
47	0xbd2adf8c	-0.041717097
48	0xbd9a4db6	-0.075343534
49	0xbd87ae34	-0.066250235
50	0xbcdf38f0	-0.02724883
51	0x3dbc55ec	0.09196076
52	0x3c3f5710	0.011678472
53	0x3d0c10b4	0.034195617
54	0x3c2b9e80	0.010474801
55	0x3c991560	0.01868695
56	0x3dc6e60a	0.09711845
57	0xbc6aa070	-0.014320478
58	0xbdeb41c2	-0.11487152
59	0x3dcadc7a	0.09905334
60	0xbc5a7480	-0.01333344
61	0x3cf8f620	0.030390799
62	0xbd311eb4	-0.04324217
63	0xbdf75896	-0.12077443

weight f4 [2, 64]
0	0x3d11b858	0.035576195
1	0xbdb0c21e	-0.08630775
2	0xbd232474	-0.039829686
3	0xbcfe7840	-0.031063199
4	0x3dc271a2	0.0949433
5	0xbd87cdba	-0.06631036
6	0xbca5adb0	-0.020224422
7	0x3dd0acfe	0.10189246
8	0x3c8dd120	0.017311633
9	0x3d2fb768	0.04289952
10	0xbdf3ad20	-0.11898255
11	0x3d201b68	0.039088637
12	0x3d87b3a0	0.066260576
13	0xbd784028	-0.06060806
14	0x3d0fbe38	0.035093516
15	0xbd77a804	-0.060462967
16	0x3cf9ee70	0.030509204
17	0xbbc206a0	-0.0059212
18	0xbdf1c970	-0.11805999
19	0x3db9af0c	0.09066591
20	0x3d73ac3c	0.059490427
21	0x3d5e7330	0.05430907
22	0xbdb1d52e	-0.08683239
23	0x3dbfd70a	0.09367187
24	0xbdcd5ee6	-0.10027866
25	0x3df363fe	0.11884306
26	0x3d31f558	0.04344687
27	0x3df4473c	0.119276494
28	0xbd552ad8	-0.052042812
29	0xbc04ff00	-0.008117437
30	0xbd70a598	-0.058751673
31	0x3d46a1ec	0.048494264
32	0xbd885fb6	-0.066588804
33	0x3d8499e4	0.06474665
34	0xbdcdede2	-0.10055138
35	0xbc9159b8	-0.017742977
36	0xbcedcec8	-0.029029265
37	0x3d22e374	0.039767697
38	0x3de74a96	0.11293523
39	0x3db367e4	0.0876005
40	0x3cd07020	0.02544409
41	0x3ab50b80	0.0013812631
42	0xbd2bf1cc	-0.041978642
43	0x3d32c500	0.043644905
44	0xbdf8044c	-0.121101946
45	0xbc36a1c0	-0.011146963
46	0xbd1f6034	-0.038910106
47	0xbddf2b96	-0.10896985
48	0x3ddeddf4	0.10882178
49	0xbd31ac14	-0.043376997
50	0xbd9a1466	-0.07523422
51	0xbd11b3e0	-0.035571933
52	0xbd341ad0	-0.043970883
53	0x3ca3ff40	0.020019174
54	0x3c6335d0	0.01386781
55	0x3df3a230	0.11896169
56	0xbd7d2930	-0.061806858
57	0xbd4624b0	-0.04837483
58	0xbd93f4ea	-0.07224448
59	0xbde7f24c	-0.11325511
60	0x3dcfa056	0.101380035
61	0x3bd2cb60	0.0064329356
62	0x3cd2cfb8	0.025733814
63	0xbd052368	-0.03250447
64	0xbc0cf050	-0.008602217
65	0x3ccc6e78	0.02495502
66	0x3dc25cd0	0.09490359
67	0x3da6b288	0.08139521
68	0xbdaad89a	-0.08342095
69	0xbd7a5504	-0.061116233
70	0xbd256fd0	-0.040389836
71	0x3dac0cc6	0.08400874
72	0x3c86ca48	0.016453877
73	0xbd049b5c	-0.032374725
74	0x3dd65ee4	0.10467318
75	0x3ce74d58	0.028235123
76	0x3cd4f238	0.025994405
77	0xbd354534	-0.04425545
78	0x3ccc16d0	0.024913222
79	0x3dbf17ac	0.09330687
80	0x3cff4f48	0.031165734
81	0xbdfe563a	-0.1241879
82	0x3ced2148	0.028946534
83	0x3daeb3ce	0.08530389
84	0xbdbddcdc	-0.09270641
85	0xbdb95cb8	-0.09050888
86	0xbd7aa0c0	-0.06118846
87	0x3ddc7d3c	0.10766074
88	0x3d97bda8	0.07409221
89	0xbaa27180	-0.0012393445
90	0xbdca655e	-0.098826155
91	0x3c45f900	0.012083292
92	0xbdc9a3a8	-0.09845668
93	0xbd91d99a	-0.07121582
94	0x3bd63520	0.0065370947
95	0x3dc30cc2	0.09523918
96	0x3caceff8	0.02111052
97	0x3db06ffa	0.08615108
98	0xbdd29a4c	-0.10283336
99	0xbd7e275c	-0.062049255
100	0x3af6f180	0.0018840283
101	0x3c0d9c30	0.008643195
102	0x3d587e04	0.052854553
103	0xbabd5c80	-0.0014447123
104	0xbd885e18	-0.06658572
105	0x3dc4c42c	0.09607729
106	0x3dc1c286	0.094609305
107	0x3dbade38	0.09124416
108	0x3d7b4dac	0.06135337
109	0xbc022e60	-0.007945627
110	0x3d0f30f8	0.03495881
111	0xbc9f5768	-0.019450858
112	0x3d175df0	0.03695482
113	0x3dff5cac	0.12468848
114	0x3daf0608	0.08546072
115	0xbd3aae14	-0.04557617
116	0x3db4bcea	0.08825095
117	0xbdc96b20	-0.098348856
118	0x3d876f44	0.06613019
119	0x3da7c66a	0.08192141
120	0xbc584630	-0.013200328
121	0x3dc734fa	0.09726901
122	0x3dd13c92	0.10216631
123	0x3df38682	0.1189089
124	0xbd67695c	-0.056496963
125	0x3d0f898c	0.035043284
126	0xbde2fbe6	-0.11083202
127	0xbdae100a	-0.08499153

bias f4 [2]
0	0x3db198c6	0.08671717
1	0x3d800d10	0.062524915
